{"format": "torch", "nodes": [{"name": "model_x_to_z", "id": 10825369936, "class_name": "EncoderDecoderModel(\n  (encoder): BertModel(\n    (embeddings): BertEmbeddings(\n      (word_embeddings): Embedding(20, 128, padding_idx=0)\n      (position_embeddings): Embedding(100, 128)\n      (token_type_embeddings): Embedding(2, 128)\n      (LayerNorm): LayerNorm((128,), eps=1e-12, elementwise_affine=True)\n      (dropout): Dropout(p=0.1, inplace=False)\n    )\n    (encoder): BertEncoder(\n      (layer): ModuleList(\n        (0-1): 2 x BertLayer(\n          (attention): BertAttention(\n            (self): BertSelfAttention(\n              (query): Linear(in_features=128, out_features=128, bias=True)\n              (key): Linear(in_features=128, out_features=128, bias=True)\n              (value): Linear(in_features=128, out_features=128, bias=True)\n              (dropout): Dropout(p=0.1, inplace=False)\n            )\n            (output): BertSelfOutput(\n              (dense): Linear(in_features=128, out_features=128, bias=True)\n              (LayerNorm): LayerNorm((128,), eps=1e-12, elementwise_affine=True)\n              (dropout): Dropout(p=0.1, inplace=False)\n            )\n          )\n          (intermediate): BertIntermediate(\n            (dense): Linear(in_features=128, out_features=512, bias=True)\n            (intermediate_act_fn): GELUActivation()\n          )\n          (output): BertOutput(\n            (dense): Linear(in_features=512, out_features=128, bias=True)\n            (LayerNorm): LayerNorm((128,), eps=1e-12, elementwise_affine=True)\n            (dropout): Dropout(p=0.1, inplace=False)\n          )\n        )\n      )\n    )\n    (pooler): BertPooler(\n      (dense): Linear(in_features=128, out_features=128, bias=True)\n      (activation): Tanh()\n    )\n  )\n  (decoder): BertLMHeadModel(\n    (bert): BertModel(\n      (embeddings): BertEmbeddings(\n        (word_embeddings): Embedding(20, 128, padding_idx=0)\n        (position_embeddings): Embedding(100, 128)\n        (token_type_embeddings): Embedding(2, 128)\n        (LayerNorm): LayerNorm((128,), eps=1e-12, elementwise_affine=True)\n        (dropout): Dropout(p=0.1, inplace=False)\n      )\n      (encoder): BertEncoder(\n        (layer): ModuleList(\n          (0-1): 2 x BertLayer(\n            (attention): BertAttention(\n              (self): BertSelfAttention(\n                (query): Linear(in_features=128, out_features=128, bias=True)\n                (key): Linear(in_features=128, out_features=128, bias=True)\n                (value): Linear(in_features=128, out_features=128, bias=True)\n                (dropout): Dropout(p=0.1, inplace=False)\n              )\n              (output): BertSelfOutput(\n                (dense): Linear(in_features=128, out_features=128, bias=True)\n                (LayerNorm): LayerNorm((128,), eps=1e-12, elementwise_affine=True)\n                (dropout): Dropout(p=0.1, inplace=False)\n              )\n            )\n            (crossattention): BertAttention(\n              (self): BertSelfAttention(\n                (query): Linear(in_features=128, out_features=128, bias=True)\n                (key): Linear(in_features=128, out_features=128, bias=True)\n                (value): Linear(in_features=128, out_features=128, bias=True)\n                (dropout): Dropout(p=0.1, inplace=False)\n              )\n              (output): BertSelfOutput(\n                (dense): Linear(in_features=128, out_features=128, bias=True)\n                (LayerNorm): LayerNorm((128,), eps=1e-12, elementwise_affine=True)\n                (dropout): Dropout(p=0.1, inplace=False)\n              )\n            )\n            (intermediate): BertIntermediate(\n              (dense): Linear(in_features=128, out_features=512, bias=True)\n              (intermediate_act_fn): GELUActivation()\n            )\n            (output): BertOutput(\n              (dense): Linear(in_features=512, out_features=128, bias=True)\n              (LayerNorm): LayerNorm((128,), eps=1e-12, elementwise_affine=True)\n              (dropout): Dropout(p=0.1, inplace=False)\n            )\n          )\n        )\n      )\n    )\n    (cls): BertOnlyMLMHead(\n      (predictions): BertLMPredictionHead(\n        (transform): BertPredictionHeadTransform(\n          (dense): Linear(in_features=128, out_features=128, bias=True)\n          (transform_act_fn): GELUActivation()\n          (LayerNorm): LayerNorm((128,), eps=1e-12, elementwise_affine=True)\n        )\n        (decoder): Linear(in_features=128, out_features=20, bias=True)\n      )\n    )\n  )\n)", "parameters": [["encoder.embeddings.word_embeddings.weight", [20, 128]], ["encoder.embeddings.position_embeddings.weight", [100, 128]], ["encoder.embeddings.token_type_embeddings.weight", [2, 128]], ["encoder.embeddings.LayerNorm.weight", [128]], ["encoder.embeddings.LayerNorm.bias", [128]], ["encoder.encoder.layer.0.attention.
…
